…
19 - INFO - saving to save_rrelu_1_resnet20_rotatedrelu_maam
2023-02-08 07:46:19 - DEBUG - run arguments: Namespace(prune='', finetuning=0, CA='', dataset='CIFAR10', arch='resnet20_rotatedrelu_maam', sr=False, s=0.0001, gamma=0.0, workers=4, epochs=1200, start_epoch=0, batch_size=128, advtest=0, lr=0.1, momentum=0.9, weight_decay=0.0001, print_freq=50, resume='', evaluate=False, half=False, warm_up=False, save_dir='save_rrelu_1_resnet20_rotatedrelu_maam', save_every=10, epsfgsm=0.1, epspgd=0.031)
2023-02-08 07:46:19 - INFO - model structure: DataParallel(
  (module): ResNet_rotated(
    (conv1): Conv2d(3, 16, kernel_size=(3, 3), stride=(1, 1), padding=(1, 1), bias=False)
    (bn1): BatchNorm2d(16, eps=1e-05, momentum=0.1, affine=True, track_running_stats=True)
    (layer1): Sequential(
      (0): BasicBlock_rotatedrelu_maam(
        (conv1): Conv2d(16, 16, kernel_size=(3, 3), stride=(1, 1), padding=(1, 1), bias=False)
        (bn1): BatchNorm2d(16, eps=1e-05, momentum=0.1, affine=True, track_running_stats=True)
        (conv2): Conv2d(16, 16, kernel_size=(3, 3), stride=(1, 1), padding=(1, 1), bias=False)
        (bn2): BatchNorm2d(16, eps=1e-05, momentum=0.1, affine=True, track_running_stats=True)
        (rrelu1): RReLU()
        (rrelu2): RReLU()
        (shortcut): Sequential()
      )
      (1): BasicBlock_rotatedrelu_maam(
        (conv1): Conv2d(16, 16, kernel_size=(3, 3), stride=(1, 1), padding=(1, 1), bias=False)
        (bn1): BatchNorm2d(16, eps=1e-05, momentum=0.1, affine=True, track_running_stats=True)
        (conv2): Conv2d(16, 16, kernel_size=(3, 3), stride=(1, 1), padding=(1, 1), bias=False)
        (bn2): BatchNorm2d(16, eps=1e-05, momentum=0.1, affine=True, track_running_stats=True)
        (rrelu1): RReLU()
        (rrelu2): RReLU()
        (shortcut): Sequential()
      )
      (2): BasicBlock_rotatedrelu_maam(
        (conv1): Conv2d(16, 16, kernel_size=(3, 3), stride=(1, 1), padding=(1, 1), bias=False)
        (bn1): BatchNorm2d(16, eps=1e-05, momentum=0.1, affine=True, track_running_stats=True)
        (conv2): Conv2d(16, 16, kernel_size=(3, 3), stride=(1, 1), padding=(1, 1), bias=False)
        (bn2): BatchNorm2d(16, eps=1e-05, momentum=0.1, affine=True, track_running_stats=True)
        (rrelu1): RReLU()
        (rrelu2): RReLU()
        (shortcut): Sequential()
      )
    )
    (layer2): Sequential(
      (0): BasicBlock_rotatedrelu_maam(
        (conv1): Conv2d(16, 32, kernel_size=(3, 3), stride=(2, 2), padding=(1, 1), bias=False)
        (bn1): BatchNorm2d(32, eps=1e-05, momentum=0.1, affine=True, track_running_stats=True)
        (conv2): Conv2d(32, 32, kernel_size=(3, 3), stride=(1, 1), padding=(1, 1), bias=False)
        (bn2): BatchNorm2d(32, eps=1e-05, momentum=0.1, affine=True, track_running_stats=True)
        (rrelu1): RReLU()
        (rrelu2): RReLU()
        (shortcut): LambdaLayer()
      )
      (1): BasicBlock_rotatedrelu_maam(
        (conv1): Conv2d(32, 32, kernel_size=(3, 3), stride=(1, 1), padding=(1, 1), bias=False)
        (bn1): BatchNorm2d(32, eps=1e-05, momentum=0.1, affine=True, track_running_stats=True)
        (conv2): Conv2d(32, 32, kernel_size=(3, 3), stride=(1, 1), padding=(1, 1), bias=False)
        (bn2): BatchNorm2d(32, eps=1e-05, momentum=0.1, affine=True, track_running_stats=True)
        (rrelu1): RReLU()
        (rrelu2): RReLU()
        (shortcut): Sequential()
      )
      (2): BasicBlock_rotatedrelu_maam(
        (conv1): Conv2d(32, 32, kernel_size=(3, 3), stride=(1, 1), padding=(1, 1), bias=False)
        (bn1): BatchNorm2d(32, eps=1e-05, momentum=0.1, affine=True, track_running_stats=True)
        (conv2): Conv2d(32, 32, kernel_size=(3, 3), stride=(1, 1), padding=(1, 1), bias=False)
        (bn2): BatchNorm2d(32, eps=1e-05, momentum=0.1, affine=True, track_running_stats=True)
        (rrelu1): RReLU()
        (rrelu2): RReLU()
        (shortcut): Sequential()
      )
    )
    (layer3): Sequential(
      (0): BasicBlock_rotatedrelu_maam(
        (conv1): Conv2d(32, 64, kernel_size=(3, 3), stride=(2, 2), padding=(1, 1), bias=False)
        (bn1): BatchNorm2d(64, eps=1e-05, momentum=0.1, affine=True, track_running_stats=True)
        (conv2): Conv2d(64, 64, kernel_size=(3, 3), stride=(1, 1), padding=(1, 1), bias=False)
        (bn2): BatchNorm2d(64, eps=1e-05, momentum=0.1, affine=True, track_running_stats=True)
        (rrelu1): RReLU()
        (rrelu2): RReLU()
        (shortcut): LambdaLayer()
      )
      (1): BasicBlock_rotatedrelu_maam(
        (conv1): Conv2d(64, 64, kernel_size=(3, 3), stride=(1, 1), padding=(1, 1), bias=False)
        (bn1): BatchNorm2d(64, eps=1e-05, momentum=0.1, affine=True, track_running_stats=True)
        (conv2): Conv2d(64, 64, kernel_size=(3, 3), stride=(1, 1), padding=(1, 1), bias=False)
        (bn2): BatchNorm2d(64, eps=1e-05, momentum=0.1, affine=True, track_running_stats=True)
        (rrelu1): RReLU()
        (rrelu2): RReLU()
        (shortcut): Sequential()
      )
      (2): BasicBlock_rotatedrelu_maam(
        (conv1): Conv2d(64, 64, kernel_size=(3, 3), stride=(1, 1), padding=(1, 1), bias=False)
        (bn1): BatchNorm2d(64, eps=1e-05, momentum=0.1, affine=True, track_running_stats=True)
        (conv2): Conv2d(64, 64, kernel_size=(3, 3), stride=(1, 1), padding=(1, 1), bias=False)
        (bn2): BatchNorm2d(64, eps=1e-05, momentum=0.1, affine=True, track_running_stats=True)
        (rrelu1): RReLU()
        (rrelu2): RReLU()
        (shortcut): Sequential()
      )
    )
    (linear): Linear(in_features=64, out_features=10, bias=True)
  )
)
2023-02-08 07:46:19 - INFO - number of parameters: 270394
2023-02-08 07:46:41 - INFO - lr: 0.1
2023-02-08 07:46:45 - INFO - Epoch: [0][0/391]	Time 3.898 (3.898)	Data 0.286 (0.286)	Loss 2.9596 (2.9596)	Prec@1 7.812 (7.812)
2023-02-08 07:46:48 - INFO - Epoch: [0][50/391]	Time 0.053 (0.127)	Data 0.000 (0.006)	Loss 1.7974 (2.1199)	Prec@1 32.031 (21.354)
…
